…
s=[model_checkpoint],\n","                    workers=1)\n","  \n","  # Model Test\n","  results = model.predict_generator(testingSet,\n","                                    steps=1,\n","                                    verbose=1)\n","  save_result(results, testImgDir, outDir, testImgDir)"],"execution_count":11,"outputs":[{"output_type":"stream","text":["_________________________________________________________________\n","Layer (type)                 Output Shape              Param #   \n","=================================================================\n","input_3 (InputLayer)         (None, 128, 128, 3)       0         \n","_________________________________________________________________\n","conv2d_41 (Conv2D)           (None, 128, 128, 16)      448       \n","_________________________________________________________________\n","conv2d_42 (Conv2D)           (None, 128, 128, 16)      2320      \n","_________________________________________________________________\n","max_pooling2d_9 (MaxPooling2 (None, 64, 64, 16)        0         \n","_________________________________________________________________\n","conv2d_43 (Conv2D)           (None, 64, 64, 32)        4640      \n","_________________________________________________________________\n","conv2d_44 (Conv2D)           (None, 64, 64, 32)        9248      \n","_________________________________________________________________\n","max_pooling2d_10 (MaxPooling (None, 32, 32, 32)        0         \n","_________________________________________________________________\n","conv2d_45 (Conv2D)           (None, 32, 32, 48)        13872     \n","_________________________________________________________________\n","conv2d_46 (Conv2D)           (None, 32, 32, 48)        20784     \n","_________________________________________________________________\n","max_pooling2d_11 (MaxPooling (None, 16, 16, 48)        0         \n","_________________________________________________________________\n","conv2d_47 (Conv2D)           (None, 16, 16, 64)        27712     \n","_________________________________________________________________\n","conv2d_48 (Conv2D)           (None, 16, 16, 64)        36928     \n","_________________________________________________________________\n","max_pooling2d_12 (MaxPooling (None, 8, 8, 64)          0         \n","_________________________________________________________________\n","conv2d_49 (Conv2D)           (None, 8, 8, 80)          46160     \n","_________________________________________________________________\n","conv2d_50 (Conv2D)           (None, 8, 8, 80)          57680     \n","_________________________________________________________________\n","conv2d_transpose_9 (Conv2DTr (None, 16, 16, 64)        20544     \n","_________________________________________________________________\n","conv2d_51 (Conv2D)           (None, 16, 16, 64)        36928     \n","_________________________________________________________________\n","conv2d_52 (Conv2D)           (None, 16, 16, 64)        36928     \n","_________________________________________________________________\n","conv2d_transpose_10 (Conv2DT (None, 32, 32, 48)        12336     \n","_________________________________________________________________\n","conv2d_53 (Conv2D)           (None, 32, 32, 48)        20784     \n","_________________________________________________________________\n","conv2d_54 (Conv2D)           (None, 32, 32, 48)        20784     \n","_________________________________________________________________\n","conv2d_transpose_11 (Conv2DT (None, 64, 64, 32)        6176      \n","_________________________________________________________________\n","conv2d_55 (Conv2D)           (None, 64, 64, 32)        9248      \n","_________________________________________________________________\n","conv2d_56 (Conv2D)           (None, 64, 64, 32)        9248      \n","_________________________________________________________________\n","conv2d_transpose_12 (Conv2DT (None, 128, 128, 16)      2064      \n","_________________________________________________________________\n","conv2d_57 (Conv2D)           (None, 128, 128, 16)      2320      \n","_________________________________________________________________\n","conv2d_58 (Conv2D)           (None, 128, 128, 16)      2320      \n","_________________________________________________________________\n","conv2d_59 (Conv2D)           (None, 128, 128, 16)      2320      \n","_________________________________________________________________\n","conv2d_60 (Conv2D)           (None, 128, 128, 1)       17        \n","=================================================================\n","Total params: 401,809\n","Trainable params: 401,809\n","Non-trainable params: 0\n","_________________________________________________________________\n","Epoch 1/50\n","Found 200 images belonging to 1 classes.\n","Found 800 images belonging to 1 classes.\n","Found 200 images belonging to 1 classes.\n","Found 800 ima
…
