…
el.predict_generator(testingSet,\n","                                    steps=1,\n","                                    verbose=1)\n","  save_result(results, testImgDir, outDir, testImgDir)"],"execution_count":64,"outputs":[{"output_type":"stream","text":["__________________________________________________________________________________________________\n","Layer (type)                    Output Shape         Param #     Connected to                     \n","==================================================================================================\n","input_16 (InputLayer)           (None, 128, 128, 3)  0                                            \n","__________________________________________________________________________________________________\n","conv2d_285 (Conv2D)             (None, 128, 128, 32) 896         input_16[0][0]                   \n","__________________________________________________________________________________________________\n","conv2d_286 (Conv2D)             (None, 128, 128, 32) 9248        conv2d_285[0][0]                 \n","__________________________________________________________________________________________________\n","max_pooling2d_72 (MaxPooling2D) (None, 64, 64, 32)   0           conv2d_286[0][0]                 \n","__________________________________________________________________________________________________\n","conv2d_287 (Conv2D)             (None, 64, 64, 64)   18496       max_pooling2d_72[0][0]           \n","__________________________________________________________________________________________________\n","conv2d_288 (Conv2D)             (None, 64, 64, 64)   36928       conv2d_287[0][0]                 \n","__________________________________________________________________________________________________\n","max_pooling2d_73 (MaxPooling2D) (None, 32, 32, 64)   0           conv2d_288[0][0]                 \n","__________________________________________________________________________________________________\n","conv2d_289 (Conv2D)             (None, 32, 32, 96)   55392       max_pooling2d_73[0][0]           \n","__________________________________________________________________________________________________\n","conv2d_290 (Conv2D)             (None, 32, 32, 96)   83040       conv2d_289[0][0]                 \n","__________________________________________________________________________________________________\n","max_pooling2d_74 (MaxPooling2D) (None, 16, 16, 96)   0           conv2d_290[0][0]                 \n","__________________________________________________________________________________________________\n","conv2d_291 (Conv2D)             (None, 16, 16, 128)  110720      max_pooling2d_74[0][0]           \n","__________________________________________________________________________________________________\n","conv2d_292 (Conv2D)             (None, 16, 16, 128)  147584      conv2d_291[0][0]                 \n","__________________________________________________________________________________________________\n","conv2d_transpose_48 (Conv2DTran (None, 32, 32, 96)   49248       conv2d_292[0][0]                 \n","__________________________________________________________________________________________________\n","concatenate_26 (Concatenate)    (None, 32, 32, 192)  0           conv2d_transpose_48[0][0]        \n","                                                                 conv2d_290[0][0]                 \n","__________________________________________________________________________________________________\n","conv2d_293 (Conv2D)             (None, 32, 32, 96)   165984      concatenate_26[0][0]             \n","__________________________________________________________________________________________________\n","conv2d_294 (Conv2D)             (None, 32, 32, 96)   83040       conv2d_293[0][0]                 \n","__________________________________________________________________________________________________\n","conv2d_transpose_49 (Conv2DTran (None, 64, 64, 64)   24640       conv2d_294[0][0]                 \n","__________________________________________________________________________________________________\n","concatenate_27 (Concatenate)    (None, 64, 64, 128)  0           conv2d_transpose_49[0][0]        \n","                                                                 conv2d_288[0][0]                 \n","__________________________________________________________________________________________________\n","conv2d_295 (Conv2D)             (None, 64, 64, 64)   73792       concatenate_27[0][0]             \n","__________________________________________________________________________________________________\n","conv2d_296 (Conv2D)             (None, 64, 64, 64)   36928       conv2d_295[0][0]                 \n","__________________________________________________________________________________________________\n","conv2d_transpose_50 (Conv2DTran (None, 128, 128, 32) 8224        conv2d_296[0][0]                 \n","__________________________________________________________________________________________________\n","concatenate_28 (Concatenate)    (None, 128, 128, 64) 0           conv2d_transpose_50[0][0]        \n","                                                                 conv2d_286[0][0]                 \n","__________________________________________________________________________________________________\n","conv2d_297 (Conv2D)             (None, 128, 128, 32) 18464       concatenate_28[0][0]             \n","__________________________________________________________________________________________________\n","conv2d_298 (Conv2D)             (None, 128, 128, 32) 9248        conv2d_297[0][0]                 \n","__________________________________________________________________________________________________\n","conv2d_299 (Conv2D)             (None, 128, 128, 32) 9248        conv2d_298[0][0]                 \n","__________________________________________________________________________________________________\n","conv2d_300 (Conv2D)             (None, 128, 128, 1)  33          conv2d_299[0][0]                 \n","==================================================================================================\n","Total params: 941,153\n","Trainable params: 941,153\n","Non-trainable params: 0\n","__________________________________________________________________________________________________\n","Epoch 1/30\n","Found 200 images belonging to 1 classes.\n","Fo
…
